…
, 'target_kl': 'None', 'lr_schedule': '<function constant_fn.<locals>.func at 0x000001FF232D4820>', 'rollout_buffer': '<stable_baselines3.common.buffers.RolloutBuffer object at 0x000001FF18BD9C10>', 'policy': 'ActorCriticPolicy(\n  (features_extractor): FlattenExtractor(\n    (flatten): Flatten(start_dim=1, end_dim=-1)\n  )\n  (pi_features_extractor): FlattenExtractor(\n    (flatten): Flatten(start_dim=1, end_dim=-1)\n  )\n  (vf_features_extractor): FlattenExtractor(\n    (flatten): Flatten(start_dim=1, end_dim=-1)\n  )\n  (mlp_extractor): MlpExtractor(\n    (policy_net): Sequential(\n      (0): Linear(in_features=12, out_features=512, bias=True)\n      (1): Tanh()\n      (2): Linear(in_features=512, out_features=512, bias=True)\n      (3): Tanh()\n      (4): Linear(in_features=512, out_features=256, bias=True)\n      (5): Tanh()\n      (6): Linear(in_features=256, out_features=128, bias=True)\n      (7): Tanh()\n    )\n    (value_net): Sequential(\n      (0): Linear(in_features=12, out_features=512, bias=True)\n      (1): Tanh()\n      (2): Linear(in_features=512, out_features=512, bias=True)\n      (3): Tanh()\n      (4): Linear(in_features=512, out_features=256, bias=True)\n      (5): Tanh()\n      (6): Linear(in_features=256, out_features=128, bias=True)\n      (7): Tanh()\n    )\n  )\n  (action_net): Linear(in_features=128, out_features=4, bias=True)\n  (value_net): Linear(in_features=128, out_features=1, bias=True)\n)', '_logger': '<stable_baselines3.common.logger.Logger object at 0x000001FF2DE5F250>'}
+2024-01-07 23:41:03,854 WARNING MsgRouterThr:31124 [router.py:message_loop():77] message_loop has been closed
diff --git a/wandb/run-20240107_214531-v6xff5nd/run-v6xff5nd.wandb b/wandb/run-20240107_214531-v6xff5nd/run-v6xff5nd.wandb
index ce3d37f..2f376c5 100644
Binary files a/wandb/run-20240107_214531-v6xff5nd/run-v6xff5nd.wandb and b/wandb/run-20240107_214531-v6xff5nd/run-v6xff5nd.wandb differ
