…
  value: <function constant_fn.<locals>.func at 0x000002A71580F790>
rollout_buffer:
  desc: null
  value: <stable_baselines3.common.buffers.RolloutBuffer object at 0x000002A70B013790>
policy:
  desc: null
  value: "ActorCriticPolicy(\n  (features_extractor): FlattenExtractor(\n    (flatten):\
    \ Flatten(start_dim=1, end_dim=-1)\n  )\n  (pi_features_extractor): FlattenExtractor(\n\
    \    (flatten): Flatten(start_dim=1, end_dim=-1)\n  )\n  (vf_features_extractor):\
    \ FlattenExtractor(\n    (flatten): Flatten(start_dim=1, end_dim=-1)\n  )\n  (mlp_extractor):\
    \ MlpExtractor(\n    (policy_net): Sequential(\n      (0): Linear(in_features=12,\
    \ out_features=512, bias=True)\n      (1): Tanh()\n      (2): Linear(in_features=512,\
    \ out_features=512, bias=True)\n      (3): Tanh()\n      (4): Linear(in_features=512,\
    \ out_features=256, bias=True)\n      (5): Tanh()\n      (6): Linear(in_features=256,\
    \ out_features=128, bias=True)\n      (7): Tanh()\n    )\n    (value_net): Sequential(\n\
    \      (0): Linear(in_features=12, out_features=512, bias=True)\n      (1): Tanh()\n\
    \      (2): Linear(in_features=512, out_features=512, bias=True)\n      (3): Tanh()\n\
    \      (4): Linear(in_features=512, out_features=256, bias=True)\n      (5): Tanh()\n\
    \      (6): Linear(in_features=256, out_features=128, bias=True)\n      (7): Tanh()\n\
    \    )\n  )\n  (action_net): Linear(in_features=128, out_features=4, bias=True)\n\
    \  (value_net): Linear(in_features=128, out_features=1, bias=True)\n)"
_logger:
  desc: null
  value: <stable_baselines3.common.logger.Logger object at 0x000002A7203317C0>
